.dart_tool/chrome-device/Default/optimization_guide_prediction_model_downloads/7d6061a7-0244-40e9-b7ce-4d619b38d908/model.tflite (tflite, 410364 bytes, 166 tensors)

context_transformer_0/bottleneck_input/norm/add f4 [32]
0	0x3da837f1	0.08213795
1	0x3d5a36b0	0.05327481
2	0xbde26e70	-0.110562205
3	0xbdc3209e	-0.095277056
4	0xbdb87b12	-0.09007849
5	0xbdbd7fe1	-0.092529066
6	0x3d8bfdce	0.06835519
7	0xbd70fa4a	-0.058832444
8	0xbcd6c6a4	-0.026217766
9	0x3d483b88	0.0488849
10	0xbd1b80c1	-0.037964586
11	0xbdcfa83e	-0.101395115
12	0xbd902830	-0.07038915
13	0xbafbae1f	-0.0019201672
14	0x3ba976c0	0.005171627
15	0xbbad6304	-0.0052913446
16	0xbb3b0cca	-0.0028541558
17	0x3d0962ac	0.033541366
18	0x3dec1ff8	0.11529535
19	0x3dbc551e	0.09195922
20	0xbd844fc4	-0.064605266
21	0x3e1e032e	0.154309
22	0xbe89fb08	-0.26949334
23	0xbcfda0bc	-0.030960433
24	0xbcfea8bb	-0.031086316
25	0xbd19b048	-0.03752163
26	0xbd8f32f2	-0.06992139
27	0x3e00fc99	0.12596358
28	0xbdd8135a	-0.10550566
29	0xbdd9ab3f	-0.10628366
30	0x3d11a25d	0.035555232
31	0x3d897c5c	0.06713173

context_transformer_1/bottleneck_input/norm/add f4 [32]
0	0xbdc0bdd2	-0.09411205
1	0x3db89e76	0.09014599
2	0xbe0ed911	-0.13949992
3	0x3d4fef12	0.050765105
4	0xbdebcdbb	-0.11513849
5	0x3cc2f48c	0.02379825
6	0xbe9d751f	-0.3075342
7	0xbe886f40	-0.26647377
8	0xbe5de592	-0.21669605
9	0xbc9d577e	-0.019206759
10	0x3d6814fb	0.056660634
11	0xbcfbbea7	-0.030730559
12	0xbd01a161	-0.031648044
13	0x3d5e49d2	0.05426962
14	0xbe8484d3	-0.25882587
15	0xb9dddd40	-0.0004231725
16	0xbd71ecec	-0.059063837
17	0xbd0a5b4b	-0.03377847
18	0xbea4507a	-0.3209265
19	0xbe17c450	-0.14820981
20	0x3b501fa6	0.0031757145
21	0x3c9e6aee	0.019338097
22	0x3db84d5e	0.089991316
23	0x3e3cd1ee	0.18439457
24	0xbd06c96c	-0.032906935
25	0x3e0ac51e	0.13551757
26	0xbd90069e	-0.07032512
27	0x3dbac63c	0.091198415
28	0xbd214213	-0.039369654
29	0xb9454408	-0.00018812728
30	0x3e35d471	0.17756821
31	0xbe2b28cf	-0.16714786

mention_transformer_0/bottleneck_input/norm/add f4 [32]
0	0xbdec0c74	-0.11525813
1	0x3d0bef58	0.034163803
2	0x3e57f529	0.21089615
3	0x3d53a322	0.051669247
4	0xbe982c50	-0.29721308
5	0x3cdbc808	0.02682878
6	0xbda02fcb	-0.07821616
7	0xbc0e55aa	-0.008687416
8	0x3dee36b6	0.11631529
9	0x3dc707e0	0.09718299
10	0x3cbc52ba	0.022988666
11	0x3d53aef6	0.051680528
12	0x3db69e56	0.08916919
13	0x3bbf22d9	0.0058330116
14	0xbd87c246	-0.066288516
15	0xbac42836	-0.0014965597
16	0x3ba1de6f	0.004939846
17	0xbd83fe19	-0.0644495
18	0x3e516982	0.20450404
19	0x3dc80362	0.0976627
20	0x3e4898ce	0.1958954
21	0xbce898a6	-0.028393101
22	0xbcc1fe1a	-0.023680735
23	0xbd1a1b94	-0.037623957
24	0xbe555eae	-0.20836899
25	0x3c6b86aa	0.014375368
26	0x3df5991d	0.11992095
27	0xbe059252	-0.13044098
28	0xbe2a1c4e	-0.1661236
29	0xbe044d11	-0.12920024
30	0x3e8eb2a6	0.27870673
31	0x3e25ceb5	0.16192134

mention_transformer_1/bottleneck_input/norm/add f4 [32]
0	0xbdd6487e	-0.104630455
1	0xbd4f2281	-0.050570015
2	0xbf23901a	-0.63891757
3	0xbced8578	-0.028994307
4	0x3ead0178	0.33790183
5	0x3e81e659	0.25371054
6	0x3e920f5a	0.28527337
7	0x3e27d42d	0.16389532
8	0xbe50ef0e	-0.20403692
9	0x3d867670	0.06565559
10	0xbdd198fd	-0.10234258
11	0x3ecfcace	0.40584415
12	0x3e05f0f6	0.130802
13	0x3e7dd1ab	0.24787013
14	0xbdb1d057	-0.08682316
15	0x3e5752d2	0.21027687
16	0x3e127968	0.14304125
17	0xbc79e244	-0.0152517
18	0x3e159786	0.14608583
19	0x3d21f090	0.03953606
20	0x3e16f156	0.147405
21	0xbf0d1c5c	-0.551214
22	0x3ee0ed12	0.4393087
23	0x3e4de9fe	0.20108792
24	0xbde951db	-0.11392566
25	0x3e74b977	0.23898874
26	0xbdf7d02f	-0.12100255
27	0x3f005e62	0.50144017
28	0x3de75424	0.112953454
29	0xbe225663	-0.15853266
30	0xbd2be6d3	-0.041968178
31	0xbec63fae	-0.3872046

context_transformer_0/attention/value/add;context_transformer_0/attention/value/einsum/Einsum;context_transformer_0/attention/value/add/ReadVariableOp/resource f4 [32]
0	0x3c157d04	0.009124044
1	0x3d6f9ac6	0.058497213
2	0x3da1ca1b	0.07899877
3	0xbd08aed8	-0.03336987
4	0x3df75c77	0.12078183
5	0x3d2f8082	0.042847164
6	0xbd20d411	-0.039264742
7	0x3c9dd063	0.019264406
8	0xbe2dcc0e	-0.16972372
9	0xbdef1e6f	-0.116757266
10	0x3d895e18	0.067074
11	0x3dad421b	0.08459874
12	0xbd7d937a	-0.061908223
13	0x3c7245d8	0.01478716
14	0xbd4bd6c3	-0.04976536
15	0xbd4eebaf	-0.050517734
16	0xbd9bd9fe	-0.07609938
17	0x3ca9c271	0.0207226
18	0xbd40e847	-0.047096517
19	0x3d96ef45	0.07369856
20	0xbd7820a6	-0.06057801
21	0xbc14c96a	-0.009081224
22	0xbd40eab4	-0.04709883
23	0x3dea1561	0.11429859
24	0xbd300ae3	-0.042979132
25	0xbd4ea9a9	-0.05045477
26	0xbda3aa5d	-0.079914786
27	0x3d47a661	0.048742656
28	0xbd84cc3c	-0.06484267
29	0x3d596ec9	0.05308417
30	0xbd719c9d	-0.05898725
31	0xbd1719e4	-0.036889926

context_transformer_0/bottleneck_input/norm/mul f4 [32, 32]
0	0xbddc267b	-0.10749527
1	0xbd6c24bb	-0.057652216
2	0x3d236c5c	0.03989826
3	0x3de9e0af	0.11419808
4	0x3e15b85c	0.14621109
5	0xbe58e1c7	-0.21179877
6	0xbe66855c	-0.2251181
7	0xbe285d2b	-0.16441791
8	0xbe83f027	-0.2576916
9	0xbdd1995b	-0.10234328
10	0xbdd0bb2a	-0.10191949
11	0x3e99b274	0.3001896
12	0xbdc88097	-0.097901516
13	0x3e3ea82b	0.18618838
14	0x3d2836ac	0.041067764
15	0xbdbb25e3	-0.09138086
16	0x3e547ecc	0.20751494
17	0xbce264f1	-0.027636023
18	0xbc095306	-0.008381611
19	0xbd714624	-0.058904782
20	0x3c9d412a	0.019196112
21	0x3ceafa96	0.028683942
22	0x3e8877db	0.26653942
23	0xbe091319	-0.13386191
24	0xbe1ba619	-0.1520008
25	0x3d3a7e65	0.045530695
26	0xbcac4166	-0.021027278
27	0xbda35c85	-0.07976631
28	0xbe172ba6	-0.14762744
29	0x3e73993a	0.2378892
30	0x3c0ce64a	0.008599827
31	0xbea7cf91	-0.32775548
32	0x3e75fdbc	0.24022573
33	0xbea2fc59	-0.3183315
34	0x3e96e141	0.2946873
35	0xbdff3378	-0.12460989
36	0x3dfeb831	0.124374755
37	0x3d5bcb18	0.053660482
38	0x3cacb8d1	0.021084221
39	0xbe9f6c2f	-0.31137225
40	0x3ddc96ef	0.10770976
41	0x3e8689f6	0.2627713
42	0xbe68cd86	-0.22734651
43	0xbed09f35	-0.40746465
44	0xbe982522	-0.2971583
45	0xbe5c0003	-0.2148438
46	0x3efbd3c4	0.49185002
47	0xbd931805	-0.07182316
48	0xbe7f6f15	-0.24944718
49	0xbcc768c1	-0.024341943
50	0xbd221a85	-0.039576072
51	0x3f369fa6	0.71337354
52	0xbe04e132	-0.1297653
53	0xbe8405fb	-0.25785813
54	0xbf25da17	-0.64785904
55	0xbcb50dde	-0.022101339
56	0xbecf9fad	-0.4055151
57	0xbde040f8	-0.10949892
58	0xbeaf58a3	-0.34247312
59	0x3dba91a2	0.091098085
60	0x3eb22e12	0.34800774
61	0xbe980661	-0.29692367
62	0x3e8134a4	0.25235474
63	0x3dccf1a2	0.10007025
64	0xbe6e9704	-0.23299795
65	0x3e01f5f7	0.12691484
66	0xb93c2a1b	-0.00017944763
67	0x3e3184aa	0.17335764
68	0xbe4a12df	-0.19733761
69	0xbdddd4fc	-0.10831639
70	0x3d50dc25	0.050991196
71	0x3e5886ce	0.21145174
72	0x3e80b8f4	0.25141108
73	0xbd8f3002	-0.06991579
74	0x3d9fd733	0.07804718
75	0x3e4e0575	0.20119269
76	0xbdb7ddf2	-0.089778796
77	0x3d37ff18	0.04492101
78	0x3e278d12	0.16362408
79	0x3edff451	0.43741086
80	0xbd313912	-0.043267317
81	0xbdcceb70	-0.10005844
82	0xbc106b6a	-0.008814672
83	0xbe3476b0	-0.176234
84	0x3dc47cf7	0.09594148
85	0xbda3d22a	-0.0799907
86	0xbdf58066	-0.11987381
87	0xbe558d0b	-0.20854585
88	0x3d902cfc	0.0703983
89	0x3bf7c21b	0.007560981
90	0xbe5902d7	-0.2119249
91	0xbe055d21	-0.13023807
92	0x3e868295	0.262715
93	0xbe3bb0be	-0.1832914
94	0xbe7fdfaf	-0.24987672
95	0x3d5d2a77	0.053995576
96	0x3dcb98f2	0.099412814
97	0x3e2a13a6	0.16609058
98	0xbde7bcb2	-0.11315288
99	0x3e7254d7	0.23665176
100	0xbd8d41b7	-0.068973
101	0x3e0671fb	0.13129418
102	0x3e178b7b	0.14799301
103	0xbc3215d5	-0.010869463
104	0x3ce038b8	0.027370796
105	0x3da96dc5	0.0827289
106	0x3d5791b1	0.052629177
107	0x3d0a5355	0.033770878
108	0xbec347b9	-0.38140658
109	0xbddf7d1c	-0.109125346
110	0x3eae92a1	0.34096244
111	0x3e94b99d	0.29047862
112	0xbe3bd235	-0.18341906
113	0xbe8b8fe7	-0.27258226
114	0xbe35b76c	-0.17745751
115	0x3d459251	0.04823524
116	0xbd065e7e	-0.03280496
117	0x3d6d5926	0.057946347
118	0x3e95010f	0.2910237
119	0xbef14e44	-0.47130024
120	0xbe6ce859	-0.23135509
121	0x3e7da285	0.24769028
122	0xbdbb43f9	-0.09143824
123	0xbede0e0a	-0.43370086
124	0x3eb1a1d2	0.34693772
125	0xbe2d1c58	-0.16905344
126	0x3bca9a88	0.0061829723
127	0xbe1961ab	-0.14978664
128	0xbba552c2	-0.005045266
129	0xbe097ccb	-0.13426511
130	0x3cb69edb	0.022292545
131	0x3bc0f173	0.005888158
132	0xbd0482a5	-0.032351155
133	0xbd385332	-0.045001216
134	0x3d7b1796	0.06130179
135	0x3ea0c955	0.31403604
136	0x3d4a60cf	0.04940873
137	0x3d576e7f	0.05259561
138	0x3ce99140	0.028511643
139	0x3c04cb77	0.00810515
140	0xbd3f194f	-0.046654996
141	0xbdfa46b5	-0.122205175
142	0xbe1e991f	-0.15488099
143	0x3ea6f992	0.32612282
144	0xbd818d4f	-0.063257806
145	0xbd05956a	-0.032613195
146	0xbd2b1e42	-0.041776903
147	0xbc61a5bb	-0.013772423
148	0xbe5d64f6	-0.21620545
149	0xbe2acdb9	-0.1668004
150	0xbe4a2cab	-0.19743602
151	0xbdf57547	-0.119852595
152	0x3e55afb0	0.208678
153	0xbd423274	-0.047411397
154	0xbdb78803	-0.08961489
155	0xbca2650a	-0.01982357
156	0x3def1c16	0.11675279
157	0xbe5071c8	-0.20355904
158	0xbc165def	-0.009177669
159	0xbd1e2a49	-0.038614545
160	0xbe9fc0f0	-0.31201887
161	0x3e83a928	0.25714993
162	0x3e865e66	0.26243895
163	0xbb0afa1a	-0.00212062
164	0x3de58eb8	0.11208862
165	0xbe5598d5	-0.20859082
166	0x3e6327cf	0.22183155
167	0xbd8f9c4f	-0.070122354
168	0x3e212815	0.15737946
169	0xbdb3df4f	-0.08782827
170	0x3e8053e3	0.25064
171	0x3e1aaa10	0.15103936
172	0xbf3e6d89	-0.7438589
173	0x3df8aeeb	0.12142738
174	0xbe12e8a6	-0.14346561
175	0x3ea4636f	0.32107112
176	0x3dd7af7b	0.10531517
177	0xbed5b0d4	-0.41736472
178	0xbdcad6f7	-0.099042825
179	0xbd6f1797	-0.058372106
180	0x3ee23aaa	0.44185382
181	0x3dd74dcb	0.10512885
182	0xbe5bb9d7	-0.21457611
183	0x3e360529	0.17775406
184	0xbe46b26c	-0.19404
185	0xbf30acff	-0.6901397
186	0xbc336bc0	-0.010950983
187	0x3f553da4	0.8329718
188	0xbe8b92f2	-0.27260548
189	0x3d7671dd	0.060167182
190	0xbe5955d5	-0.21224149
191	0x3d652961	0.055947665
192	0x3d2b920f	0.04188734
193	0x3d99645f	0.074898474
194	0x3e141016	0.14459261
195	0x3e9cfdc1	0.3066235
196	0x3df3602e	0.11883579
197	0xbe1e7a72	-0.15476397
198	0xbd8e6198	-0.06952208
199	0x3d3a18df	0.045433875
200	0xbe6c711a	-0.2309002
201	0xbded219f	-0.11578678
202	0xbe852fd7	-0.2601306
203	0x3ed1b42e	0.4095778
204	0x3d099547	0.033589628
205	0x3ccac0f7	0.024750216
206	0x3d01d8d8	0.03170094
207	0xbda46d33	-0.080286406
208	0xbd281f66	-0.04104557
209	0xbe43b6e1	-0.19112732
210	0xbd37a6a1	-0.044836644
211	0xbe4ea064	-0.20178372
212	0x3d7eaee8	0.062178522
213	0xbb255439	-0.0025227203
214	0xbd8ef5b0	-0.06980455
215	0x3df6cb05	0.12050442
216	0xbe61ec9a	-0.22062913
217	0x3d1215e0	0.035665393
218	0x3dca48f1	0.09877194
219	0xbe76f8dd	-0.24118371
220	0xbe06bbca	-0.13157573
221	0x3d8da772	0.06916703
222	0xbde85147	-0.113436274
223	0xbd2dcf9e	-0.042434327
224	0xbd6a584d	-0.057213116
225	0xbdb59274	-0.08865824
226	0xbe56bc52	-0.20970276
227	0x3e032b71	0.1280954
228	0x3eb16dbb	0.3465403
229	0x3e331d7e	0.17491719
230	0xbe177a53	-0.14792757
231	0x3d0cb39d	0.03435098
232	0x3ea70dd1	0.3262773
233	0x3afa5bc1	0.0019100831
234	0x3e98a2b1	0.29811624
235	0x3e22aabb	0.15885441
236	0x3d1f02d9	0.038821075
237	0xbea696f9	-0.32537058
238	0xbf1953d0	-0.5989351
239	0xbedc96ad	-0.43083706
240	0x3dfc9bd0	0.123344064
241	0x3f1e2788	0.6177907
242	0x3e2fa9ff	0.17154692
243	0x3dfc724b	0.12326487
244	0xbe9d4a50	-0.30720758
245	0xbcfd32c6	-0.030908
246	0x3e8eddde	0.27903646
247	0xbdae542c	-0.08512148
248	0x3dde4e35	0.108547606
249	0x3d639886	0.05556538
250	0x3e12bde4	0.1433025
251	0xbddc9536	-0.10770647
252	0xbe2b099f	-0.16702889
253	0xbe8ee190	-0.27906466
254	0x3e9b1af3	0.30293998
255	0x3ea11be3	0.31466588

context_transformer_0/kq_shared_bottleneck/norm/mul;context_transformer_0/kq_shared_bottleneck/norm/add;context_transformer_0/attention/key/einsum/Einsum;context_transformer_0/attention/key/add;context_transformer_0/attention/value/einsum/Einsum;context_transformer_0/attention/key/add/ReadVariableOp/resource f4 [32]
0	0x3df7dd3b	0.12102743
1	0x3c47597f	0.012167334
2	0xbe75ce10	-0.24004388
3	0xbe01fab5	-0.12693293
4	0x3e6d9142	0.23199943
5	0xbdfe19d1	-0.12407268
6	0xbd8c323b	-0.06845518
7	0x3de9340e	0.11386882
8	0x3e938cb8	0.28818297
9	0x3e9a1d8a	0.30100662
10	0xbe29ce5f	-0.1658263
11	0x3cbd5c02	0.023115162
12	0xbe470f7b	-0.19439499
13	0xbdcca306	-0.09992032
14	0x3e87c785	0.2651941
15	0x3e704dea	0.23467222
16	0xbe63bbf0	-0.22239661
17	0x3de7dcae	0.11321388
18	0xbdfff8cb	-0.12498625
19	0x3e564a29	0.20926727
20	0x3e382a12	0.17984799
21	0x3dd62b4d	0.10457478
22	0xbd8c242b	-0.06842836
23	0x3e5bde3e	0.21471497
24	0xbe0833fe	-0.13301083
25	0xbbc2cf5c	-0.0059451293
26	0xbe54eeac	-0.20794171
27	0x3daae247	0.0834394
28	0x3dae6116	0.085146114
29	0xbda90eb0	-0.082547545
30	0x3dadb820	0.08482385
31	0xbe3b41c5	-0.18286808

context_transformer_0/kq_shared_bottleneck/norm/mul;context_transformer_0/kq_shared_bottleneck/norm/add;context_transformer_0/attention/key/einsum/Einsum;context_transformer_0/attention/key/add;context_transformer_0/attention/value/einsum/Einsum;context_transformer_0/attention/key/add/ReadVariableOp/resource1 f4 [32, 32]
0	0x3cf68f41	0.030097606
1	0x3e1d7163	0.15375285
2	0x3e1ccf12	0.15313366
3	0xbdfb854a	-0.12281282
4	0xbe87771d	-0.26458064
5	0xbecf0400	-0.4043274
6	0x3e912a0b	0.2835239
7	0x3e10d91f	0.14145325
8	0xbde32fd6	-0.11093108
9	0xbe085056	-0.13311896
10	0xbd190d5b	-0.037366252
11	0x3e38cd51	0.18047072
12	0xbe79cd26	-0.24394664
13	0x3eb733ef	0.3578181
14	0x3d46f222	0.04857076
15	0xbeb0daff	-0.3454208
16	0xbe215b73	-0.15757541
17	0xbe5aac38	-0.21354759
18	0x3e8393f2	0.2569881
19	0x3ea2dc7d	0.31808844
20	0xbe0e5b3b	-0.13901989
21	0xbdf8fd0a	-0.12157638
22	0x3db4092f	0.08790814
23	0xbe33c2dd	-0.17554803
24	0x3dd58d42	0.104273334
25	0xbda2bebd	-0.07946537
26	0xbdf8617d	-0.121279694
27	0xbcf6d3b4	-0.030130245
28	0xbd858a2a	-0.06520493
29	0x3a65a63a	0.00087604264
30	0x3d1cd6c0	0.03829074
31	0xbd5410c9	-0.05177382
32	0x3cd49335	0.0259491
33	0x3dcc4e32	0.09975852
34	0xbe04fc7c	-0.1298694
35	0xbe170147	-0.14746581
36	0x3eab7e17	0.33494636
37	0x3f36da5a	0.7142693
38	0xbd983afa	-0.07433124
39	0x3e5a9fb4	0.21349984
40	0xbd5a7e28	-0.05334297
41	0x3e2f566b	0.1712281
42	0x3dc6770b	0.096906744
43	0xbec7075c	-0.38872802
44	0x3e767745	0.24068935
45	0xbf0dddcf	-0.5541658
46	0xbde75e7e	-0.1129732
47	0x3ddbb9c6	0.10728793
48	0xbe5228bf	-0.20523356
49	0x3ef0dcc4	0.4704343
50	0xbca0afca	-0.019615073
51	0xbeda1f01	-0.4260178
52	0x3efe7e4a	0.49705726
53	0x3ec445c8	0.3833449
54	0x3e2d816a	0.16943899
55	0x3e729245	0.2368861
56	0x3d1fb3c7	0.03898981
57	0xbdde056e	-0.108408794
58	0x3ce0d627	0.027445866
59	0xbec0d51e	-0.37662596
60	0xbe2c1903	-0.16806416
61	0x3e89e986	0.26935977
62	0xbe59be88	-0.21264088
63	0x3e8d8d33	0.2764679
64	0x3d59c1e2	0.053163417
65	0xbdf52f73	-0.11971941
66	0x3db8f752	0.090315476
67	0x3dbacf74	0.091216
68	0xbed67c6f	-0.4189181
69	0xbde35ba8	-0.111014664
70	0x3ddb1ec8	0.106992304
71	0xbe7f8f0e	-0.24956915
72	0x3d00cbec	0.031444475
73	0xbdd66ab8	-0.10469574
74	0x3d4fc3e7	0.050723936
75	0x3f40e47a	0.7534863
76	0xbea463b1	-0.32107309
77	0x3eeee055	0.46655527
78	0x3ebe7855	0.3720118
79	0xbd613dde	-0.05499064
80	0x3e383d62	0.17992166
81	0xbca357a9	-0.01993926
82	0x3e9ed0c4	0.3101865
83	0xbd6790a4	-0.056534424
84	0xbe1ef1e0	-0.15521955
85	0xbdded9b8	-0.1088137
86	0xbde89bc4	-0.11357835
87	0xbd3ca6dd	-0.04605757
88	0x3d5ab762	0.053397544
89	0x3df6058e	0.12012778
90	0x3e1ce559	0.15321864
91	0x3f0020d4	0.5005009
92	0x3e1afc64	0.15135342
93	0xbe838d01	-0.25693515
94	0x3dc140c2	0.0943618
95	0xbd49a5ae	-0.04923027
96	0x3c19787e	0.0093671065
97	0x3e5ee56a	0.21767202
98	0x3e369c54	0.17833072
99	0xbe4585eb	-0.19289367
100	0xbeb94af0	-0.36189985
101	0x3d630f24	0.05543436
102	0x3eb6022c	0.35548532
103	0x3df4423f	0.11926698
104	0xbe2c3614	-0.16817504
105	0xbda2b2ad	-0.07944236
106	0x3ccb605c	0.024826221
107	0x3e9f4d39	0.31113604
108	0xbe4ee95f	-0.20206212
109	0x3e062275	0.13099082
110	0x3e26cfc8	0.162902
111	0xbe981259	-0.29701498
112	0xbe422090	-0.18957734
113	0x3dc023c8	0.09381825
114	0x3ef51431	0.47866967
115	0xbcc86bec	-0.024465524
116	0xbd9d5940	-0.07683039
117	0x3e11b131	0.1422775
118	0x3d2e4825	0.04254927
119	0xbde5beac	-0.112180084
120	0x3e5be1c3	0.2147284
121	0xbd9de26f	-0.077092044
122	0xbd04e758	-0.03244719
123	0x3d1fba63	0.03899611
124	0xbe0c5119	-0.13702811
125	0xbd297b70	-0.041377485
126	0xbe3b8239	-0.18311395
127	0x3cbda2bd	0.023148889
128	0x3bd98234	0.006637836
129	0xbe077d94	-0.13231498
130	0xbe4fa8ab	-0.20279185
131	0x3d93467f	0.071911804
132	0x3ecc594a	0.39911872
133	0xbd83afa6	-0.06429987
134	0xbe8c5efc	-0.27416217
135	0x3d4b028b	0.049562972
136	0x3e0c3755	0.13692982
137	0x3ce0ecd5	0.02745668
138	0x3c585bb2	0.013205456
139	0xbedef2cd	-0.43544617
140	0x3e4762a3	0.1947122
141	0xbe3fb522	-0.1872144
142	0xbe28bc29	-0.16478027
143	0x3e53407b	0.20630066
144	0x3d9fe27f	0.078068726
145	0xbd9f5aa1	-0.07780958
146	0xbed27865	-0.4110748
147	0x3d81eec6	0.063443705
148	0x3e0815f9	0.13289632
149	0xbdf7efd2	-0.12106289
150	0x3d9d67a2	0.07685782
151	0x3e27c20f	0.16382621
152	0xbe2d1d76	-0.1690577
153	0xbd24c4b7	-0.040226664
154	0xbd1d66ff	-0.038428303
155	0xbe798789	-0.24368109
156	0xbb122c7b	-0.0022304344
157	0x3e172a4f	0.14762233
158	0x3e019f8c	0.12658519
159	0x3dae985a	0.085251525
160	0xbe8d0c21	-0.27548316
161	0x3d3e0f68	0.04640141
162	0x3e475837	0.19467245
163	0xbbf53824	-0.007483499
164	0x3e75e5d0	0.24013448
165	0xbe13f226	-0.14447841
166	0xbe20c19d	-0.15698858
167	0x3de85735	0.113447584
168	0xbd202546	-0.039098047
169	0x3bdec4e0	0.0067983717
170	0xbe08c789	-0.13357367
171	0xbf39d556	-0.7259115
172	0x3ef912ff	0.48647305
173	0xbf30673f	-0.6890754
174	0xbee33db5	-0.44383016
175	0x3e159ade	0.14609858
176	0xbd94ce86	-0.07265954
177	0xbe6c8852	-0.23098877
178	0xbea8cd14	-0.32968962
179	0x3e1b4e1d	0.15166517
180	0xbe9a084c	-0.30084455
181	0xbd97fc2e	-0.07421146
182	0xbe20342c	-0.15644902
183	0xbe8e2fab	-0.27770743
184	0xbbcba571	-0.0062147905
185	0xbcac1b29	-0.021009045
186	0xbea89a4c	-0.3293022
187	0x3c155fe4	0.0091171
188	0xbd3c0939	-0.045907233
189	0xbea17a71	-0.31538728
190	0xbdfd7a96	-0.12376897
191	0xbef9d2b9	-0.4879358
192	0xbd8415e8	-0.06449491
193	0x3e4bf5da	0.19918004
194	0x3e802da5	0.25034824
195	0xbe4a5962	-0.1976066
196	0xbec6144b	-0.38687357
197	0xbe06e436	-0.13172993
198	0x3eb4130d	0.35170785
199	0x3e2ce54c	0.16884345
200	0xbe6568a9	-0.22403206
201	0xbe0dd45a	-0.13850537
202	0x3d000831	0.031257812
203	0x3dfcbbf6	0.12340538
204	0xbdadc24e	-0.08484326
205	0x3e22bfc2	0.15893462
206	0x3deed811	0.11662305
207	0xbea5ab52	-0.3235727
208	0xbe6b69da	-0.22989598
209	0xbd96bf61	-0.073607214
210	0x3ef1e00e	0.47241253
211	0x3d8538ba	0.0650496
212	0xbddfc943	-0.109270595
213	0x3de81ec5	0.11333994
214	0x3c8b07d5	0.016971508
215	0xbe5e2d63	-0.21697001
216	0x3e5d9c06	0.2164155
217	0xbdaf5cf8	-0.08562654
218	0xbd6e842a	-0.05823151
219	0xbdd7fef0	-0.10546672
220	0xbdfcc62b	-0.12342485
221	0xbd747be2	-0.059688456
222	0xbdffdc58	-0.12493199
223	0x3d0f5db6	0.03500148
224	0x3ec58d7c	0.38584507
225	0x3e633bb4	0.22190744
226	0xbddff3ed	-0.10935197
227	0xbe2f7e66	-0.17138061
228	0x3c8bef21	0.017081799
229	0x3e3cb320	0.18427706
230	0x3e9c1ae7	0.30489275
231	0x3e2794f4	0.16365415
232	0xbd999e02	-0.07500841
233	0x3d4598cd	0.048241425
234	0x3c4c82e9	0.012482383
235	0x3f2447dd	0.64172155
236	0xbe85944c	-0.26089704
237	0x3e722738	0.23647773
238	0x3e993cb3	0.29929122
239	0xbea180ab	-0.31543478
240	0xbe33c1cd	-0.17554398
241	0x3db4995c	0.088183135
242	0x3e28b274	0.16474324
243	0x3e47a389	0.19495977
244	0x3e03cd1a	0.12871209
245	0xbd23a977	-0.039956536
246	0x3ed53177	0.416393
247	0x3e687125	0.22699411
248	0x3def44ac	0.1168302
249	0xbe7e5a18	-0.24839056
250	0x3a713b67	0.0009202272
251	0x3e09b5ec	0.13448304
252	0xbe535065	-0.20636137
253	0x3df95e18	0.1217615
254	0x3bdc8ca9	0.006730635
255	0x3d31ffcc	0.043456838

context_transformer_0/kq_shared_bottleneck/norm/mul;context_transformer_0/kq_shared_bottleneck/norm/add;context_transformer_0/attention/query/einsum/Einsum;context_transformer_0/attention/query/add;context_transformer_0/attention/value/einsum/Einsum;context_transformer_0/attention/query/add/ReadVariableOp/resource;context_transformer_0/attention/Mul;context_transformer_0/attention/Mul/y f4 [32]
0	0xbe3fa2f5	-0.18714507
1	0x3e05aaec	0.13053483
2	0xbd86602e	-0.065613136
3	0xbe5535a0	-0.20821238
4	0x3e401b7d	0.18760486
5	0xbdb6b751	-0.089216836
6	0xbe69054d	-0.22755928
7	0xbda6e948	-0.081499636
8	0xbd546dd0	-0.051862538
9	0x3e43b6ff	0.19112776
10	0x3d5dd104	0.05415441
11	0xbd6d2713	-0.057898592
12	0xbe3b2f8e	-0.1827986
13	0xbe265a71	-0.16245438
14	0x3de7fd95	0.11327664
15	0x3e1968cc	0.14981383
16	0xbe754461	-0.23951866
17	0x3e4c53c7	0.19953834
18	0xbe40bd31	-0.18822171
19	0xbe576a6a	-0.21036687
20	0xbe55a345	-0.20863064
21	0x3e8924ab	0.26785788
22	0xbe56984a	-0.20956531
23	0x3e6ea6c8	0.2330581
24	0xbd3c6555	-0.045995075
25	0xbcc089da	-0.023503233
26	0xbdd6381b	-0.1045992
27	0x3d974b93	0.073874615
28	0x3db01e2a	0.08599503
29	0xbdb3a06c	-0.087708324
30	0x3d843f6f	0.064574115
31	0xbccf4329	-0.02530058

context_transformer_0/kq_shared_bottleneck/norm/mul;context_transformer_0/kq_shared_bottleneck/norm/add;context_transformer_0/attention/query/einsum/Einsum;context_transformer_0/attention/query/add;context_transformer_0/attention/value/einsum/Einsum;context_transformer_0/attention/query/add/ReadVariableOp/resource;context_transformer_0/attention/Mul;context_transformer_0/attention/Mul/y1 f4 [32, 32]
0	0xbd257232	-0.04039211
1	0xbd424420	-0.04742825
2	0x3d380be4	0.044933215
3	0x3d7a3b74	0.061091855
4	0x3b629b1e	0.003457732
5	0x3df54d64	0.11977652
6	0xbcc08a45	-0.023503432
7	0xbd473e4d	-0.0486434
8	0x3bc6933a	0.0060600312
9	0xbd15e6c7	-0.03659704
10	0xbd2156d2	-0.03938944
11	0x3e0fc22d	0.14038916
12	0xbe318d30	-0.17339015
13	0xbc38e9db	-0.011286224
14	0xbd0e6f1c	-0.03477393
15	0x3cbb5718	0.022868678
16	0x3da40b93	0.0801002
17	0x3d4cbbdd	0.049983848
18	0x3c83b9c3	0.016079789
19	0xbce63494	-0.028101243
20	0xbcff8ba0	-0.031194508
21	0xbe00cf37	-0.12579046
22	0xbd83caa1	-0.06435133
23	0xbd54f16d	-0.051988054
24	0xbc9a735e	-0.01885384
25	0x3dcb0058	0.09912175
26	0x3d8be028	0.06829864
27	0x3db18b25	0.08669118
28	0x3d9eb462	0.07749249
29	0xbd901414	-0.070350796
30	0xbc59c3b9	-0.013291293
31	0xbd1c7932	-0.03820152
32	0x3e05ed06	0.13078699
33	0x3dedf3b2	0.11618747
34	0xbd914d4c	-0.07094821
35	0xbdba26b7	-0.090894155
36	0x3cd527f6	0.026020031
37	0x3de97f5d	0.11401246
38	0x3d7566ad	0.059912372
39	0x3db99c1d	0.09062979
40	0xbb98dd9c	-0.00466509
41	0x3d4f8a0a	0.050668754
42	0x3d26f85a	0.04076419
43	0xbdb43e4e	-0.08800946
44	0x3db61ae1	0.088918455
45	0xbea7521e	-0.32679838
46	0xbc53ca3e	-0.012926636
47	0xbd91822a	-0.07104905
48	0xbe28801d	-0.16455121
49	0x3e2d06ac	0.16897076
50	0x3be74a07	0.0070583853
51	0xbc880bba	-0.016607154
52	0x3e13b4fd	0.1442451
53	0x3e92db44	0.2868291
54	0x3dba2a8f	0.09090149
55	0x3dbd5e40	0.092464924
56	0x3d695ba8	0.056972176
57	0xbe055ca5	-0.13023622
58	0xbdad56e6	-0.0846384
59	0x3cedf368	0.02904673
60	0xbe06aca6	-0.13151798
61	0x3e0d49ca	0.1379768
62	0xbc943f06	-0.018096458
63	0xbd2144c5	-0.039372224
64	0xbdf03b69	-0.117300816
65	0xbceca923	-0.028889244
66	0x3db889be	0.09010647
67	0xbc62e3d9	-0.013848268
68	0xbe3175a4	-0.17330033
69	0xbcc90081	-0.024536373
70	0x3cafe2b2	0.021470401
71	0x3ccdbf9b	0.025115779
72	0xbd4f2722	-0.05057443
73	0xbcfb4bed	-0.030675853
74	0x3bea618b	0.0071527413
75	0x3e23ef5d	0.16009279
76	0xbe3255fe	-0.17415616
77	0x3ecadbb2	0.3962074
78	0x3d9deea6	0.07711534
79	0x3c8e8804	0.017398842
80	0x3d54bbc8	0.051936895
81	0xbdbc836a	-0.09204753
82	0x3d6c502d	0.05769365
83	0x3b92a9b9	0.004475799
84	0xbdc48e9d	-0.09597514
85	0x3be04010	0.0068435743
86	0x3cfe4da2	0.031042878
87	0xbdefdb03	-0.11711695
88	0xbceaf4d3	-0.028681194
89	0x3c678a12	0.01413204
90	0x3ddff23f	0.10934877
91	0x3cd56cf1	0.026052924
92	0x3c66dd22	0.014090808
93	0xbe2557ab	-0.16146724
94	0xbbaacdda	-0.0052125277
95	0x3d76bef2	0.060240693
96	0xbd76f3fb	-0.06029127
97	0x3adf3b7e	0.001703128
98	0x3d727fd4	0.059203938
99	0xbc2e2da2	-0.010630997
100	0xbda7c227	-0.081913285
101	0x3e238399	0.1596817
102	0x3c8ef2c7	0.01744975
103	0x3c81d23b	0.015847316
104	0xbd30bbc1	-0.043147806
105	0xbcfb6f7b	-0.030692806
106	0x3cf94961	0.030430498
107	0x3e3824a8	0.17982733
108	0xbe105227	-0.14093839
109	0xbd46643a	-0.048435427
110	0x3b910a9e	0.0044263145
111	0xbc22292b	-0.0098975105
112	0x3c0aa4ee	0.008462174
113	0x3dc2e300	0.09515953
114	0x3d93815e	0.07202409
115	0xbd5b3e1e	-0.053526036
116	0xbb37484a	-0.0027966672
117	0x3dc1916b	0.094515644
118	0xbcecc198	-0.028900906
119	0xbdbeedd1	-0.09322704
120	0x3ccf6a7e	0.025319334
121	0x3d5ad0d7	0.05342182
122	0x3d58cce9	0.052929793
123	0x3e14f165	0.1454521
124	0x3c885e5b	0.016646555
125	0xbdb5cfb7	-0.08877509
126	0xbcb636da	-0.022242952
127	0xbd52e995	-0.051492292
128	0x3dc82544	0.09772733
129	0x3c45d20f	0.012074008
130	0xbda5644d	-0.080757715
131	0x3c2bb3ae	0.010479851
132	0x3dfadd1c	0.122492045
133	0xbdbf7a20	-0.09349465
134	0xbc17d905	-0.00926805
135	0xbc5e52a5	-0.013569509
136	0x3d744afe	0.05964183
137	0x3d63d2e6	0.05562105
138	0xbd31a548	-0.043370515
139	0xbe2ad25e	-0.16681811
140	0x3db59a4b	0.0886732
141	0xbd90e21c	-0.07074377
142	0xbc7e8c59	-0.015536391
143	0x3bdf546b	0.0068154833
144	0xbb5b584c	-0.0033469377
145	0xbd0f2411	-0.034946505
146	0xbda1b763	-0.07896306
147	0x3d263ab1	0.040583316
148	0x3d536a2a	0.051614918
149	0xbdef560d	-0.11686335
150	0x3cca66a0	0.024707139
151	0x3dea3b1f	0.11437058
152	0xbd147166	-0.036240958
153	0xbd333bf6	-0.043758355
154	0xbd915f3b	-0.07098242
155	0xbddeb362	-0.10874058
156	0xbccf02a5	-0.025269816
157	0x3dd0e139	0.10199208
158	0x3cc91e51	0.024550589
159	0x3c8c3368	0.017114356
160	0xbd6d7d70	-0.057980955
161	0xbc8b24a5	-0.016985247
162	0x3ccfca1a	0.025364924
163	0x3d3ff725	0.046866555
164	0x3dfbe7a4	0.12300041
165	0xbd4ff4ac	-0.050770447
166	0xbd152bcd	-0.036418725
167	0xbd095692	-0.033529826
168	0x3c015e6b	0.007896046
169	0xbd8bbb95	-0.06822888
170	0x3d6377de	0.055534236
171	0xbe785124	-0.24249703
172	0x3ed4b314	0.41542876
173	0xbeb1d97a	-0.34736234
174	0xbcd4755a	-0.025934864
175	0x3cd68c4b	0.026189944
176	0x3cfc5924	0.030804224
177	0x3c6dfbd4	0.014525373
178	0x3c3dd691	0.011586801
179	0xbb9f8b05	-0.0048688673
180	0xbd3f013c	-0.046632037
181	0xbde83f58	-0.11340207
182	0xbd9cf1bc	-0.07663295
183	0xbc02ecdf	-0.007991045
184	0x3d6b2ad6	0.0574139
185	0x3d1b8195	0.037965376
186	0xbde4a1a6	-0.111636445
187	0xbdd60108	-0.104494154
188	0x3d1747d1	0.036933724
189	0x3d903bc7	0.070426516
190	0xbd4c7750	-0.049918473
191	0xbce40d11	-0.027838262
192	0xbd440a5e	-0.04786145
193	0xbc508097	-0.012725971
194	0x3d445333	0.047930907
195	0x3cc85995	0.024456779
196	0xbd5d0626	-0.05396094
197	0x3e147b8f	0.14500259
198	0xbc43959b	-0.011937524
199	0xbcda9eb9	-0.026687013
200	0xbc8c5518	-0.01713042
201	0xbcfabbcd	-0.030607129
202	0x3c5819a4	0.013189707
203	0x3e29c728	0.16579878
204	0xbdde5b5b	-0.108572684
205	0xbdd5b5c3	-0.10435059
206	0xbc970809	-0.018436449
207	0x3b917c03	0.004439832
208	0x3d2ecf0d	0.042677928
209	0x3dc64b5c	0.096823424
210	0x3d3c3401	0.045948032
211	0xbd206dcd	-0.039167214
212	0xbd22efed	-0.039779592
213	0x3cb1ed4f	0.021719603
214	0xbd638147	-0.05554321
215	0xbdb5c323	-0.0887511
216	0x3d02a6e3	0.031897437
217	0x3d670b29	0.056407128
218	0x3d5e585f	0.054283496
219	0x3e2f47c7	0.17117225
220	0x3d5fe523	0.05466188
221	0xbdc5a89a	-0.09651299
222	0xbd160673	-0.036627244
223	0xbdd703c2	-0.104987636
224	0x3d15cb87	0.036571052
225	0xbc97cc0a	-0.01852991
226	0xbc867c12	-0.016416583
227	0xbd738801	-0.059455875
228	0xbd55ae95	-0.052168448
229	0x3e3c8774	0.18411046
230	0xbb469238	-0.0030299556
231	0x3d94c327	0.07263785
232	0xbd0772da	-0.033068515
233	0x3cac8fdc	0.021064691
234	0xbce50526	-0.027956557
235	0x3e1cfcb9	0.15330781
236	0xbe7e85f5	-0.24855788
237	0x3d90aafa	0.07063861
238	0xbc51def0	-0.0128095
239	0xbb497f9d	-0.003074623
240	0xbcde835d	-0.027162248
241	0x3e06a0d0	0.13147283
242	0x3d151f67	0.0364069
243	0xbd2628f6	-0.040566407
244	0x3dda4251	0.1065718
245	0x3db8c825	0.090225495
246	0x3d5b812d	0.05358999
247	0x3cb3d868	0.021953776
248	0xbc8f8f68	-0.017524436
249	0xbb98f31a	-0.004667652
250	0x3dd32ff2	0.10311879
251	0x3cf85f4b	0.030318877
252	0xbd377a8b	-0.0447946
253	0x3cf2862d	0.029604996
254	0x3d0937fd	0.03350066
255	0x3e252b71	0.16129853

context_transformer_0/ffn_layer_0/intermediate_dense/einsum/Einsum;context_transformer_0/ffn_layer_0/intermediate_dense/Relu;context_transformer_0/ffn_layer_0/intermediate_dense/add f4 [32]
0	0xbeb41f26	-0.35180014
1	0xbee3a3cc	-0.44460905
2	0xbec76a6c	-0.3894838
3	0xbdd50b5c	-0.10402557
4	0xbe40db0b	-0.18833558
5	0xbe96d62f	-0.29460284
6	0xbe762d8e	-0.24040815
7	0xbe75031a	-0.23926964
8	0xbc3c177e	-0.01148021
9	0xbe8f4983	-0.27985772
10	0xbe98cdec	-0.29844606
11	0xbdd55dd3	-0.10418286
12	0xbe6f2cf2	-0.23356989
13	0xbe0c2038	-0.13684165
14	0x3b78ab9d	0.0037944086
15	0xbeac859e	-0.33695692
16	0xbe58c9d6	-0.21170744
17	0xbe0433f0	-0.12910438
18	0xbbf275db	-0.0073993034
19	0xbea94667	-0.33061525
20	0xbc71c689	-0.014756807
21	0xbe5fad38	-0.21843421
22	0xbe80fcd5	-0.25192896
23	0xbe18a97d	-0.14908405
24	0xbe6b223a	-0.22962275
25	0xbee5f35e	-0.44912237
26	0xbe892f3a	-0.26793844
27	0xbe90aa51	-0.2825494
28	0xbef8b469	-0.48575142
29	0xbddc3bd7	-0.10753601
30	0xbe493cab	-0.19652049
31	0xbe772640	-0.24135685

context_transformer_0/attention/norm/mul;context_transformer_0/attention/norm/add;context_transformer_0/ffn_layer_0/intermediate_dense/einsum/Einsum;context_transformer_0/ffn_layer_0/intermediate_dense/Relu;context_transformer_0/ffn_layer_0/intermediate_dense/add f4 [32, 32]
0	0xbe8912a2	-0.26772028
1	0xbe866f3e	-0.26256746
2	0x3e72ba4e	0.23703882
3	0x3e9989ca	0.29987937
4	0x3da7d7f4	0.08195487
5	0xbe4e6eaa	-0.20159402
6	0xbd7ca459	-0.06168017
7	0x3f091dd6	0.5356115
8	0x3dd1f1b8	0.10251182
9	0x3dc317bb	0.095260106
10	0x3e2aec55	0.16691716
11	0xbe401213	-0.18756895
12	0x3eaa3af4	0.33248103
13	0xbe286dee	-0.16448185
14	0x3e2c6b8a	0.16837898
15	0x3e183abb	0.14866154
16	0x3dee1274	0.116246134
17	0xbd8aa867	-0.067704014
18	0x3b8bc83b	0.0042658127
19	0x3eeb610a	0.45972472
20	0x3c34cd3a	0.011035258
21	0xbc60db4f	-0.013724162
22	0xbd912668	-0.070874035
23	0x3d99cff5	0.07510368
24	0x3db7bd6e	0.08971678
25	0x3e80f6b4	0.2518822
26	0x3dc6df04	0.097105056
27	0xbd23c955	-0.039986927
28	0x3e721dd3	0.2364419
29	0x3ea56ce5	0.32309642
30	0xbe436e45	-0.19085033
31	0x3eb48896	0.35260457
32	0x3ddecb2f	0.10878598
33	0x3da46285	0.080266036
34	0x3ecc9aed	0.3996195
35	0x3e579cdb	0.2105593
36	0xbda0971f	-0.07841324
37	0x3dd2948e	0.10282241
38	0x3e957801	0.29193118
39	0xbe72e991	-0.23721911
40	0x3e59666e	0.2123048
41	0xbec99f3e	-0.39379305
42	0xbd12ca49	-0.035837445
43	0x3e3675cd	0.17818375
44	0x3ead100c	0.33801305
45	0xbe03ba9f	-0.12864159
46	0xbcd72e16	-0.026267093
47	0x3c90d3f7	0.017679198
48	0x3e94bd1c	0.2905053
49	0xbc0c31b6	-0.008556774
50	0x3db27a38	0.087147176
51	0xbe308ada	-0.17240468
52	0xbd29cb5f	-0.041453715
53	0xbe525b5b	-0.20542662
54	0xbe178c34	-0.14799577
55	0x3e8e3438	0.27774215
56	0xbcefbcbb	-0.029264798
57	0xbd44e94b	-0.048074048
58	0xbe5a054d	-0.21291085
59	0xbe9672a1	-0.2938433
60	0xbd8a8d68	-0.06765252
61	0x3eaa926f	0.33314845
62	0xbd7e4198	-0.062074274
63	0xbe81aaf4	-0.2532574
64	0xbdc756f5	-0.097333826
65	0xbe44e5df	-0.19228314
66	0x3de20ed7	0.11037987
67	0x3eabf55a	0.33585626
68	0xbcd49e34	-0.025954343
69	0x3e3b44ea	0.18288007
70	0x3ea9b3d9	0.33145025
71	0x3a9b6237	0.0011854832
72	0xbdf6e834	-0.12056008
73	0x3e42e1a5	0.19031389
74	0x3e9f45b6	0.31107873
75	0x3cc3cbd5	0.023900906
76	0x3c9c4bfb	0.019079199
77	0xbe3bb9b1	-0.18332554
78	0xbeb5673f	-0.35430333
79	0xbd671849	-0.056419645
80	0xbcf6aa9c	-0.03011065
81	0x3ef02d88	0.46909738
82	0xbee1c214	-0.44093382
83	0xbe0a1160	-0.1348319
84	0x3e4e0b5b	0.2012152
85	0xbba72b94	-0.0051016305
86	0x3e311254	0.17292148
87	0xbdc5ad82	-0.096522346
88	0x3d181345	0.03712775
89	0x3d38ec40	0.04514718
90	0x3e44a896	0.19204935
91	0xbf0b08a9	-0.5431009
92	0x3e2f6ead	0.17132063
93	0x3d36127a	0.044451214
94	0xbe35b135	-0.1774338
95	0x3e343166	0.17596969
96	0x3db7f1d8	0.08981675
97	0xbedb3815	-0.42816225
98	0x3d210ffb	0.03932188
99	0x3e01dd3d	0.12682052
100	0x3e0b4b66	0.13602981
101	0xbc23f588	-0.01000727
102	0xbe68d1aa	-0.2273623
103	0x3e668cb2	0.22514609
104	0xbc8ce974	-0.017201163
105	0x3e38aff3	0.1803587
106	0x3e19505b	0.1497206
107	0x3ec45821	0.38348487
108	0x3f0b2e32	0.54367363
109	0xbea106ee	-0.314506
110	0xbd9c3724	-0.07627705
111	0xbe1f26f5	-0.15542205
112	0xbec6f61d	-0.38859645
113	0xbc4a43f5	-0.012345304
114	0xbe2d5029	-0.1692511
115	0xbd713fb0	-0.058898628
116	0xbe3b3f36	-0.18285832
117	0xbd0c1f1b	-0.034209352
118	0x3e80063c	0.25004756
119	0x3d4e2e23	0.05033697
120	0xbc4c9a53	-0.012487966
121	0x3e9c5292	0.30531746
122	0xbd064c6f	-0.032787737
123	0xbdc8b572	-0.09800233
124	0x3e68c74f	0.2273228
125	0xbd993437	-0.07480662
126	0xbe102b9b	-0.14079134
127	0x3e731f12	0.23742321
128	0x3e314c1a	0.17314187
129	0xbe1d244f	-0.15345882
130	0xbd60c9c1	-0.054879908
131	0xbe4f54fa	-0.2024726
132	0xbd3cbf93	-0.046081137
133	0x3e2d831d	0.16944547
134	0xbe58dde8	-0.211784
135	0xbe8087ef	-0.2510371
136	0x3cdf0262	0.027222816
137	0xbd9fd015	-0.078033604
138	0xbe20834c	-0.15675086
139	0x3df18875	0.11793605
140	0x3eaf1f18	0.3420341
141	0xbd6eefba	-0.05833409
142	0xbe1e5be8	-0.15464747
143	0x3da6e817	0.081497364
144	0xbe43b4fb	-0.19112007
145	0xbd835d49	-0.06414277
146	0xbedff77c	-0.43743503
147	0xbe3baeca	-0.18328395
148	0xbe636e69	-0.22210087
149	0xbe9073b9	-0.2821329
150	0x3e1d3fb8	0.15356338
151	0xbd06cd0f	-0.032910403
152	0xbde5bb60	-0.112173796
153	0x3e3667b8	0.17813003
154	0x3cf4677f	0.029834507
155	0x3dd04cc6	0.10170893
156	0x3ea6b33e	0.32558626
157	0xbdbff39e	-0.09372638
158	0xbb9238c3	-0.004462333
159	0xbda1afbe	-0.07894848
160	0xbc466088	-0.012107976
161	0x3dc341f6	0.095340654
162	0xbeb3ce81	-0.35118487
163	0x3e5071bf	0.2035589
164	0x3b93a498	0.004505705
165	0xbde7f607	-0.11326223
166	0x3e2daf9b	0.1696152
167	0xbdf3691a	-0.11885281
168	0x3d7d46f6	0.06183525
169	0x3edcc1b5	0.43116537
170	0xbc1bb420	-0.009503394
171	0x3e0f439b	0.13990633
172	0x3e3c6f9a	0.18401948
173	0xbdab72c2	-0.08371498
174	0x3e49402f	0.1965339
175	0xbd066c1a	-0.032817937
176	0xbe9e159e	-0.30875868
177	0xbd88586e	-0.066574916
178	0x3d399b58	0.045314163
179	0xbdfb95a5	-0.12284402
180	0x3e58afbd	0.21160789
181	0x3ea29170	0.31751585
182	0x3f43779b	0.7635438
183	0xbdc6cb44	-0.097067386
184	0x3ea8e497	0.329869
185	0x3d8bd2a7	0.06827288
186	0xbd7b0218	-0.061281294
187	0xbde843f6	-0.113410875
188	0x3dcb1c18	0.09917468
189	0x3d4a1d9a	0.049344636
190	0xbe0dba84	-0.13840681
191	0x3ec695c8	0.3878615
192	0xbed0436e	-0.40676445
193	0xbdaf5515	-0.0856115
194	0x3ebeae52	0.3724237
195	0x3cd73d9a	0.026274491
196	0x3e168218	0.14698064
197	0xbdf13648	-0.117779315
198	0xbe78f2d7	-0.24311386
199	0x3e7410f7	0.23834597
200	0xbd4e489b	-0.05036221
201	0xbd579d42	-0.052640207
202	0x3dcc9bd7	0.099906616
203	0xbda590c0	-0.080842495
204	0x3e011142	0.1260424
205	0xbe67ae8e	-0.22625181
206	0x3ec7588e	0.3893475
207	0x3d330d65	0.043713946
208	0xbd2beb1a	-0.041972257
209	0xbe455262	-0.19269708
210	0xbe0f06a8	-0.13967383
211	0x3c0294a2	0.007970007
212	0xbd31ffef	-0.043456968
213	0x3d7cef8a	0.06175188
214	0xbd1bec60	-0.03806722
215	0x3e20ec2c	0.15715092
216	0xbc6f20a1	-0.014595182
217	0x3eac13d5	0.3360888
218	0x3e7841bf	0.2424383
219	0xbe85beee	-0.2612223
220	0x3e74e1c8	0.23914254
221	0x3e1d6ebd	0.15374275
222	0xbdbcc971	-0.092181094
223	0xbddbeb79	-0.10738272
224	0xbe24d5b0	-0.1609714
225	0x3dea1cec	0.11431298
226	0x3e20313a	0.15643778
227	0xbcb3af02	-0.021934036
228	0xbd9f4487	-0.077767424
229	0x3c8fe132	0.017563436
230	0x3deb5a71	0.1149186
231	0x3db03c98	0.08605307
232	0x3e23840b	0.15968339
233	0xbe7fc73e	-0.24978349
234	0x3cf88bff	0.030340193
235	0xbde1f960	-0.11033893
236	0xbb8ed874	-0.0043592993
237	0x3e99b656	0.30021924
238	0x3d5fd9d9	0.054651115
239	0x3dd60cba	0.10451646
240	0x3e85b443	0.2611409
241	0x3f0a6554	0.54060864
242	0xbe93ec18	-0.28891063
243	0xbdb34462	-0.08753277
244	0x3e4c1abb	0.19932072
245	0xbe6398d4	-0.22226268
246	0x3e350ca7	0.17680608
247	0xbe07ec7c	-0.13273805
248	0x3e734fdf	0.23760937
249	0xbe0669d0	-0.13126302
250	0x3e7258ec	0.23666734
251	0x3b931141	0.004488141
252	0x3dcea2b6	0.100896284
253	0x3e516e03	0.20452122
254	0x3e2ec65a	0.17067853
255	0x3edff842	0.43744093

context_transformer_0/ffn_layer_1/intermediate_dense/einsum/Einsum;context_transformer_0/ffn_layer_1/intermediate_dense/Relu;context_transformer_0/ffn_layer_1/intermediate_dense/add f4 [32]
0	0xbe7f121d	-0.24909253
1	0xbe9a9b4b	-0.30196604
2	0xbec2e4f4	-0.38065302
3	0xbe5183cb	-0.20460431
4	0xbea52ac2	-0.32259184
5	0xbbf6e560	-0.007534668
6	0xbd6d8594	-0.05798872
7	0xbe1a195c	-0.15048736
8	0xbe5104f2	-0.20412043
9	0xbe56eeb2	-0.20989493
10	0xbe754834	-0.23953325
11	0xbd84ec5e	-0.06490396
12	0xbe26188b	-0.162203
13	0xbe26c77d	-0.16287036
14	0x3dc71e35	0.097225584
15	0xbe8956d2	-0.2682405
16	0xbd321632	-0.0434782
17	0xbe41b866	-0.18917999
18	0xbe6c64bd	-0.23085304
19	0x3a39db41	0.00070898613
20	0xbc37b56e	-0.01121269
21	0xbec79f57	-0.38988754
22	0xbda0d2f5	-0.07852737
23	0xbd26f3dc	-0.040759906
24	0xbde50e8b	-0.111844145
25	0xbde41588	-0.11136919
26	0xbe8f1528	-0.27945828
27	0xbe85b06d	-0.26111165
28	0xbd26a3ed	-0.040683676
29	0xbe479884	-0.19491774
30	0xbe857e0d	-0.26072732
31	0xbe83456c	-0.25638902

context_transformer_0/ffn_layer_0/norm/mul;context_transformer_0/ffn_layer_0/norm/add;context_transformer_0/ffn_layer_1/intermediate_dense/einsum/Einsum;context_transformer_0/ffn_layer_1/intermediate_dense/Relu;context_transformer_0/ffn_layer_1/intermediate_dense/add f4 [32, 32]
0	0x3d1d036c	0.03833334
1	0xbda458ce	-0.08024751
2	0xbdafb027	-0.0857852
3	0x3db41700	0.087934494
4	0xbc7224c3	-0.0147792725
5	0x3eb8f7e1	0.36126617
6	0x3d083c38	0.033260554
7	0x3e1add8e	0.15123579
8	0xbe8c640b	-0.27420077
9	0x3e34b414	0.1764682
10	0x3e59dbe0	0.21275282
11	0xbdd876a7	-0.10569506
12	0x3e5bb576	0.2145594
13	0x3ea05c4e	0.31320423
14	0x3e4d9e9e	0.20080039
15	0x3df94fb2	0.12173404
16	0x3e87285c	0.2639798
17	0x3d87de5f	0.06634211
18	0xbe2d96cc	-0.16952056
19	0x3e4d5961	0.20053627
20	0x3de82643	0.11335423
21	0xbe38fc28	-0.1806494
22	0x3ccb2ee4	0.024802633
23	0xbe88315c	-0.26600158
24	0xbe047956	-0.12936911
25	0xbe4f85e7	-0.20265923
26	0x3ddc4fd3	0.10757413
27	0xbe0ed8c1	-0.13949873
28	0x3ca99456	0.020700615
29	0xbe36cbc5	-0.1785117
30	0xbdd39140	-0.103304386
31	0x3d8b6146	0.06805663
32	0x3e3f1327	0.1865965
33	0xbe362e6b	-0.17791145
34	0xbd6411d5	-0.05568107
35	0xbde44ecf	-0.11147844
36	0xbdc207fe	-0.09474181
37	0x3ea5aa98	0.32356715
38	0x3e5cf0ff	0.21576308
39	0x3e1b5603	0.1516953
40	0xbec95634	-0.3932358
41	0x3e33a779	0.17544354
42	0x3d74b62b	0.05974404
43	0xbd52d124	-0.051468983
44	0x3e3bea98	0.18351209
45	0xbe8782d7	-0.2646701
46	0xbc113d24	-0.008864675
47	0xbdeae75b	-0.11469909
48	0x3e140c22	0.14457753
49	0x3d1bcf9d	0.038039792
50	0xbe3c1cc1	-0.18370344
51	0x3db95095	0.09048573
52	0x3e1a7ebf	0.15087412
53	0x3deb53b8	0.114905775
54	0x3d0376fd	0.032095898
55	0x3e51afb4	0.20477182
56	0x3d8dfc13	0.06932845
57	0x3e6e9593	0.23299246
58	0x3cfeae19	0.031088876
59	0x3d0b12e1	0.03395355
60	0x3e987707	0.2977831
61	0xbc30e079	-0.010795706
62	0x3e1e13aa	0.15437189
63	0x3cf81fea	0.030288655
64	0xbd79e40c	-0.061008498
65	0xbde06d47	-0.10958343
66	0x3de88e7e	0.11355303
67	0x3e467d10	0.19383645
68	0xbd58f735	-0.05297013
69	0x3e72ee51	0.23723723
70	0x3d0e04bf	0.034672495
71	0x3cb7440c	0.022371314
72	0xbd95120e	-0.07278834
73	0x3d6c336a	0.05766622
74	0x3dcb9618	0.099407375
75	0x3e595524	0.21223885
76	0xbe4078b6	-0.18796048
77	0xbd9f2ba2	-0.07771994
78	0xbe064bda	-0.13114873
79	0xbe39d524	-0.18147713
80	0x3d25a4ac	0.040440246
81	0x3da402ee	0.08008371
82	0x3e213afb	0.15745156
83	0xbec0a0c7	-0.37622663
84	0xbe195a1d	-0.14975782
85	0x3dc0d383	0.09415343
86	0xbc02bcd1	-0.007979588
87	0xbd3bbec4	-0.045836225
88	0xbe2da29a	-0.16956559
89	0xbdefcdb7	-0.11709159
90	0xbcab2f65	-0.020896623
91	0xbe6a3b73	-0.2287424
92	0xbdd8b7ee	-0.10581957
93	0xbedf57ad	-0.4362158
94	0xbdd62184	-0.10455611
95	0xbe94699e	-0.2898683
96	0xbd2c72f7	-0.042101827
97	0x3dbe5a92	0.09294619
98	0x3e828e3c	0.2549914
99	0xbd4a1b0a	-0.049342193
100	0x3d001359	0.03126845
101	0x3e17cf54	0.14825183
102	0x3e0fb0eb	0.14032333
103	0x3efd2d8f	0.4944882
104	0x3e9838a5	0.29730716
105	0x39bc5a55	0.00035925457
106	0xbc3cd93a	-0.0115264
107	0x3ce4e39f	0.02794057
108	0xbd9ca5cb	-0.0764881
109	0x3e04c458	0.12965524
110	0x3dfbab33	0.12288513
111	0xbd8a6fe1	-0.067596205
112	0x3e0974d0	0.13423467
113	0xbe12951d	-0.14314695
114	0xbda66541	-0.081247814
115	0x3e2da0ca	0.16955867
116	0x3d42f975	0.047601182
117	0xbe780567	-0.24220811
118	0x3ca930ec	0.02065321
119	0x3d8274ff	0.063699715
120	0x3dca23b4	0.09870091
121	0x3e28f324	0.16499001
122	0x3e0091e7	0.12555657
123	0x3e062012	0.13098171
124	0xbd8f5357	-0.06998318
125	0xbe3e2ddd	-0.18572183
126	0x3e220df8	0.15825641
127	0xbcea911c	-0.028633647
128	0x3d1b2b2b	0.037882965
129	0x3d038a1f	0.032114144
130	0x3d834587	0.06409746
131	0x3e0663a8	0.13123953
132	0x3db0dcbc	0.08635852
133	0x3e52baa0	0.20579004
134	0xbdba8936	-0.09108202
135	0x3dccdb90	0.10002816
136	0xbea5966e	-0.3234133
137	0x3ec757b9	0.38934115
138	0x3dc14be9	0.09438307
139	0xbd44b3dc	-0.04802309
140	0x3dda3b0f	0.10655796
141	0x3dd2c98d	0.10292349
142	0x3e2e196d	0.17001887
143	0xbce0d41b	-0.02744489
144	0x3e953050	0.29138422
145	0xbe6bd83a	-0.23031703
146	0x3c65d011	0.014026658
147	0x3d1d2ff8	0.038375825
148	0xbdf25fe8	-0.11834699
149	0x3d6db2a0	0.05803168
150	0xbd9e9578	-0.07743353
151	0xbb5f0dc8	-0.0034035314
152	0xbe46202e	-0.19348213
153	0xbe274b26	-0.1633726
154	0x3ea15d44	0.3151647
155	0x3d475878	0.048668355
156	0x3e5395d8	0.2066263
157	0x3d27dfc3	0.04098488
158	0xbe5eb0b4	-0.21747094
159	0xbea2ce9f	-0.31798264
160	0xbead353a	-0.3382967
161	0x3e27ed74	0.16399175
162	0x3f1f3fae	0.6220654
163	0xbe0179fc	-0.1264419
164	0xbb122367	-0.0022298933
165	0x3c95b560	0.018274963
166	0xbe54a590	-0.20766282
167	0x3dda91db	0.10672351
168	0xbdf81cbc	-0.12114856
169	0xbc69923f	-0.014256059
170	0xbd29a6f6	-0.041418992
171	0xbea8a705	-0.32939926
172	0xbda8d2b6	-0.08243315
173	0xbc248365	-0.0100410925
174	0xbe81e1b6	-0.25367516
175	0x3e91afd8	0.2845447
176	0xbc51853d	-0.012788114
177	0x3cc9b967	0.02462454
178	0xbdbf8446	-0.09351401
179	0x3e46fba4	0.19431931
180	0x3e22b6a4	0.15889984
181	0xbcf565e6	-0.029955816
182	0x3e990b16	0.2989127
183	0x3cbd6342	0.023118619
184	0x3e928e8a	0.28624374
185	0xbe603a54	-0.2189725
186	0xbdb05b23	-0.08611133
187	0x3bf9fa59	0.0076287207
188	0x3e097aa6	0.13425693
189	0x3da6e69e	0.081494555
190	0xbd907748	-0.07054001
191	0x3d909d49	0.0706125
192	0x3d5edc87	0.05440953
193	0x3e78c8ea	0.24295393
194	0x3e83d5c9	0.25749043
195	0xbd40743a	-0.046985842
196	0x3c06ae3b	0.008220251
197	0x3bc59d8d	0.0060307444
198	0xbc6d38d7	-0.014478884
199	0x3e1a9a96	0.15098032
200	0x3e63a18a	0.22229591
201	0x3e3b5124	0.18292671
202	0xbe2ea075	-0.17053397
203	0x3dd47b97	0.103751354
204	0x3eefd51e	0.46842283
205	0xbece22af	-0.40260836
206	0xbda0afcf	-0.07846033
207	0x3e91132d	0.28334942
208	0x3d3c8924	0.046029225
209	0x3e1797e5	0.14804037
210	0xbe499b8a	-0.1968824
211	0x3eba19ad	0.36347714
212	0x3e396a3e	0.18106934
213	0xbe2d8419	-0.16944923
214	0x3e7c515d	0.24640413
215	0x3de6fe63	0.11278989
216	0x3eabe58c	0.33573568
217	0xbd9d826b	-0.07690891
218	0xbdeeba34	-0.11656609
219	0x3dcf2af3	0.10115614
220	0x3e9506c0	0.29106712
221	0x3e88d888	0.267277
222	0x3c34770f	0.011014714
223	0x3e747ff8	0.23876941
224	0x3d25ed6c	0.040509626
225	0xbcf46ea4	-0.029837914
226	0x3ea0f83d	0.3143939
227	0x3cad59ca	0.021160979
228	0x3d0652fd	0.032793988
229	0x3e7d06fd	0.24709697
230	0x3e037a27	0.12839566
231	0xbe1a3533	-0.15059356
232	0xbe716c0e	-0.23576376
233	0xbd6a97ef	-0.0572738
234	0xbe1b6a00	-0.15177155
235	0xbdcc81ae	-0.09985672
236	0x3c9839b9	0.018582212
237	0xbd3b4bfa	-0.045726754
238	0xbb82ba67	-0.003989506
239	0xbe843f12	-0.2582937
240	0xbe50406a	-0.20337072
241	0x3d6b84cf	0.057499703
242	0xbe1609f9	-0.14652242
243	0xbddd4f9a	-0.108061984
244	0xbe193740	-0.14962482
245	0xbe719974	-0.23593694
246	0x3d6a6430	0.057224452
247	0x3df6c705	0.12049679
248	0x3e90dbed	0.2829279
249	0xbe78f693	-0.2431281
250	0x3d5f82e0	0.05456817
251	0xbe64db12	-0.22349194
252	0xbd65011f	-0.055909272
253	0x3e909c27	0.28244135
254	0xbc5904a8	-0.013245739
255	0xbe79679e	-0.24355933

context_transformer_0/ffn_layer_2/intermediate_dense/einsum/Einsum;context_transformer_0/ffn_layer_2/intermediate_dense/Relu;context_transformer_0/ffn_layer_2/intermediate_dense/add f4 [32]
0	0xbd9e8860	-0.07740855
1	0xbe9ec583	-0.31010064
2	0xbd7251bc	-0.05915998
3	0xbe72dbbc	-0.23716635
4	0xbebf9d72	-0.3742481
5	0xbd9acb4b	-0.07558306
6	0xbde4e67a	-0.111767724
7	0xbeafdffd	-0.34350577
8	0xbe542bd2	-0.20719841
9	0xbe6889b9	-0.22708787
10	0xbd9a8b29	-0.07546074
11	0xbe495a95	-0.1966346
12	0x3e0fcb46	0.14042386
13	0xbe4bd0c2	-0.19903854
14	0xbda5722c	-0.08078417
15	0x3d7db766	0.06194248
16	0xbeadeffb	-0.33972153
17	0xbdb85dc2	-0.09002258
18	0xbe55f3be	-0.20893762
19	0xbe08f85d	-0.13375993
20	0xbe44798c	-0.19186991
21	0xbda7bb17	-0.081899814
22	0xbc9fa616	-0.019488376
23	0xbe949049	-0.2901633
24	0xbddb3ea3	-0.107053064
25	0xbd53f25a	-0.051744796
26	0xbdf3eb2e	-0.11910091
27	0xbe621791	-0.22079302
28	0xbd66928a	-0.056292094
29	0xbe1b2310	-0.15150094
30	0xbe67d22b	-0.22638766
31	0xbe066bcb	-0.13127057

context_transformer_0/ffn_layer_1/norm/mul;context_transformer_0/ffn_layer_1/norm/add;context_transformer_0/ffn_layer_2/intermediate_dense/einsum/Einsum;context_transformer_0/ffn_layer_2/intermediate_dense/Relu;context_transformer_0/ffn_layer_2/intermediate_dense/add f4 [32, 32]
0	0xbdf14e79	-0.117825456
1	0xbc7a1547	-0.015263862
2	0xbcf6fb0f	-0.030149011
3	0xbd5f430f	-0.05450731
4	0x3cddde6a	0.027083594
5	0xbde9cc73	-0.11415949
6	0xbd57dbfc	-0.052700028
7	0x3e01c771	0.12673737
8	0x3c667a84	0.014067296
9	0x3ca980a7	0.020691229
10	0xbcd5f94e	-0.026119854
11	0x3c0cb833	0.008588838
12	0xbd0a659c	-0.03378831
13	0xbd12970f	-0.035788592
14	0x3d55fbcf	0.052242097
15	0x3c4ba714	0.012429971
16	0x3db75fc9	0.089538164
17	0x3d8b789e	0.06810115
18	0xbe051c04	-0.12998968
19	0x3db914bb	0.09037157
20	0xbc8882e1	-0.01666397
21	0x3d354e51	0.04426414
22	0xbd0f7b71	-0.035029832
23	0x3d875149	0.06607301
24	0xbc20b764	-0.009809349
25	0xbe065096	-0.13116679
26	0x3bc55fe7	0.0060233953
27	0x3ddc7e7f	0.10766315
28	0x3e24d3cb	0.16096418
29	0xbd8266ab	-0.063672386
30	0xbd7b0d0c	-0.06129174
31	0xbb6b10e0	-0.0035868213
32	0xbdb2eecd	-0.08736954
33	0xbe84044a	-0.25784522
34	0x3df2f48d	0.118630506
35	0x3e8ea91e	0.278634
36	0x3e19881c	0.14993328
37	0x3d13278c	0.035926387
38	0x3e422abe	0.18961617
39	0xbb6f673b	-0.0036530036
40	0xbe562852	-0.20913818
41	0xbdd83d44	-0.105585605
42	0x3e5ad7f8	0.21371448
43	0xbea90dfa	-0.33018476
44	0xbd209c6d	-0.03921168
45	0xbdea1d1e	-0.11431335
46	0xbd95af56	-0.07308833
47	0x3da63962	0.08116414
48	0xbe3241f1	-0.17407967
49	0xbe878a4b	-0.26472697
50	0x3d3f8dbb	0.046766024
51	0x3da3b2a3	0.079930566
52	0x3e91ef2a	0.2850278
53	0x3d8c8700	0.06861687
54	0x3e216e8f	0.15764831
55	0xbdd1a8c6	-0.10237269
56	0x3e644433	0.22291641
57	0x3e944dfd	0.2896575
58	0x3e257497	0.16157757
59	0xbe8f5470	-0.27994108
60	0x3d3e2b00	0.046427727
61	0xbdf55907	-0.11979871
62	0xbead0f3b	-0.33800682
63	0x3e5e37fa	0.21701041
64	0x3e3c041d	0.18360944
65	0x3e57b008	0.21063244
66	0xbda90a9c	-0.08253977
67	0xbda55945	-0.080736674
68	0x3dcce482	0.10004522
69	0x3e9e643e	0.30935854
70	0x3dd9c8e9	0.10634024
71	0x3dbf7275	0.09348003
72	0xbdbb948d	-0.09159193
73	0x3e277015	0.1635135
74	0xbe24232c	-0.16029042
75	0xbc0e7d66	-0.0086968895
76	0x3d85bca8	0.06530124
77	0x3d129423	0.035785805
78	0x3e7f1eca	0.24914089
79	0x3d55be66	0.05218353
80	0xbdf84a5e	-0.121235594
81	0xbe96d2e8	-0.29457784
82	0xb9ceefb9	-0.0003946999
83	0xbc961a4d	-0.018323088
84	0xbe53281b	-0.20620768
85	0x3d5ab39b	0.05339394
86	0xbc1c35ce	-0.009534312
87	0xbcfbc690	-0.03073433
88	0x3ed436be	0.41448015
89	0x3e30b957	0.17258202
90	0x3d7f49f5	0.06232639
91	0x3e8afd90	0.27146578
92	0xbd50614b	-0.050874036
93	0xbd8457a5	-0.06462029
94	0xbceb4d27	-0.028723313
95	0xbd06554f	-0.0327962
96	0xbdea0101	-0.11425973
97	0xbdc76774	-0.09736529
98	0x3db1d0f9	0.086824365
99	0x3e1b4da2	0.15166333
100	0x3c0d50a2	0.008625181
101	0x3e9b48b7	0.30328915
102	0xbdfc6ea5	-0.12325791
103	0x3e233308	0.15937436
104	0x3d6a0fe3	0.057144057
105	0x3dff49d9	0.12465257
106	0xbe119103	-0.14215474
107	0xbdfcf62a	-0.123516396
108	0xbd9e674a	-0.077345446
109	0x3d7f500b	0.062332194
110	0xbdc50668	-0.096203625
111	0x3db47e4e	0.08813153
112	0xbe5f5eb2	-0.21813467
113	0x3ed0bb24	0.40767777
114	0xbe2054ab	-0.15657298
115	0x3c53dd28	0.012931146
116	0x3e2489f4	0.1606825
117	0xbe8c7a2d	-0.27436963
118	0xbd32282f	-0.043495353
119	0x3d2f3499	0.04277477
120	0xbd59b627	-0.05315223
121	0x3d081fe5	0.033233542
122	0xbdb05e09	-0.08611686
123	0x3e2479cd	0.16062088
124	0xbe1783fd	-0.14796443
125	0xbd66601c	-0.056244
126	0xbe181451	-0.148515
127	0xbd635180	-0.055497646
128	0x3dfcae6c	0.12337956
129	0x3d455e6b	0.048185747
130	0xbdee2684	-0.1162844
131	0xbbed0a2b	-0.007233878
132	0xbd37c7c7	-0.044868257
133	0x3cdd2c3c	0.026998632
134	0x3d694d08	0.05695823
135	0x3e12e27c	0.1434421
136	0x3dce4283	0.1007128
137	0x3db308e1	0.08741928
138	0xbe8f8d1b	-0.28037342
139	0xbd0abe44	-0.033872858
140	0xbd24ba23	-0.040216576
141	0x3d09a0e3	0.0336007
142	0xbe184cff	-0.14873122
143	0x3e3b92f3	0.18317775
144	0xbcf126f8	-0.029437527
145	0xbe87394a	-0.26410896
146	0xbcf62a42	-0.030049447
147	0xbe49c074	-0.19702321
148	0xbe39efcf	-0.18157886
149	0x3d8a7673	0.06760874
150	0x3e058a54	0.13041049
151	0xbd762630	-0.060095012
152	0x3eaa2ebb	0.33238778
153	0x3e830f6f	0.25597712
154	0x3e2803d3	0.16407709
155	0x3d82cd15	0.063867725
156	0x3d5d96e7	0.05409899
157	0x3e077f67	0.13232194
158	0xbd907c5e	-0.07054971
159	0x3db8b739	0.09019322
160	0x3d1b90a7	0.037979748
161	0x3ca80019	0.020507859
162	0x3d7d3cac	0.06182544
163	0xbe29057c	-0.16505998
164	0xbb6b2f86	-0.003588648
165	0x3e6a29fe	0.22867581
166	0x3d3f0d23	0.046643388
167	0xbd678e57	-0.05653223
168	0xbe592649	-0.21206011
169	0xbda0e06c	-0.07855305
170	0x3db2c164	0.087282926
171	0xbe6e374a	-0.23263279
172	0x3c3b73b8	0.011441164
173	0x3c798321	0.0152290175
174	0x3dbf7313	0.093481205
175	0xbe339195	-0.17536004
176	0xbe69f86b	-0.2284867
177	0xbd33646a	-0.043796934
178	0x3e0d2849	0.13784899
179	0x3d64276a	0.05570165
180	0xbe26c9ac	-0.16287869
181	0x3cd141a0	0.025543988
182	0x3de922cc	0.1138359
183	0xbe545f13	-0.20739393
184	0xbd1b44b3	-0.037907314
185	0xbca8fae5	-0.020627448
186	0x3e329dfc	0.17443079
187	0x3ec24b43	0.37948045
188	0xbc38a040	-0.011268675
189	0x3e888eed	0.26671544
190	0x3dbc4e5c	0.09194633
191	0x3d5a4a26	0.05329337
192	0x3d2221d0	0.039583027
193	0xbd98b138	-0.07455677
194	0x3e20be95	0.15697701
195	0x3d500557	0.050786342
196	0xbd56b527	-0.052418854
197	0xbe0d26e1	-0.13784362
198	0x3e344cb9	0.17607392
199	0x3e7c2d84	0.24626738
200	0xbc1d1d2f	-0.009589477
201	0xbdc5d276	-0.09659283
202	0x3e92cc80	0.28671646
203	0xbd2ca2b9	-0.042147372
204	0x3c607478	0.013699643
205	0xbd7340f3	-0.059388112
206	0x3d66ac70	0.056316793
207	0x3dcf9fca	0.10137899
208	0x3d4cd1d1	0.050004784
209	0x3ce04e91	0.027381213
210	0x3d89a162	0.067202345
211	0x3e6b4cc9	0.2297851
212	0x3c6e38dc	0.0145399235
213	0xbdc4e96b	-0.096148334
214	0x3d1af8f0	0.03783506
215	0xbe84a9a1	-0.25910667
216	0xbd6dc92e	-0.058053188
217	0x3de4c5d6	0.11170547
218	0xbce83399	-0.028344916
219	0x3c8280cb	0.015930554
220	0x3d95ba8e	0.07310973
221	0x3d83573e	0.064131245
222	0x3d7cfbe5	0.061763663
223	0x3e102869	0.14077915
224	0xbe6e7f44	-0.23290735
225	0x3e95b102	0.2923661
226	0x3e696ac7	0.22794639
227	0x3e87663c	0.26445186
228	0x3ea345e2	0.31889254
229	0x3ea2cfde	0.31799215
230	0xbdac9438	-0.08426708
231	0x3eab6842	0.3347798
232	0x3d0e4cfb	0.034741383
233	0xbb9e7c33	-0.004836583
234	0x3cae7cbf	0.021299718
235	0x3da1573b	0.07877966
236	0x3e309411	0.17243983
237	0x3d8d54bd	0.06900928
238	0x3e4a8986	0.19779024
239	0x3e02b470	0.12764144
240	0xbdba02e9	-0.09082586
241	0xbe3341b0	-0.17505527
242	0x3c400699	0.011720323
243	0x3e00a5f7	0.1256331
244	0x3e239a6d	0.15976878
245	0x3e360b08	0.17777646
246	0x3e17440f	0.14772056
247	0xbdb7dbe7	-0.0897749
248	0x3e206c4d	0.15666313
249	0x3e6fca27	0.23416959
250	0xbbcd5da8	-0.006267268
251	0xbc676e8d	-0.014125478
252	0xbdd3873a	-0.10328527
253	0xbe3921eb	-0.18079345
254	0xbe0d1518	-0.13777578
255	0xbe3db006	-0.18524179

context_transformer_0/ffn_layer_3/intermediate_dense/einsum/Einsum;context_transformer_0/ffn_layer_3/intermediate_dense/Relu;context_transformer_0/ffn_layer_3/intermediate_dense/add f4 [32]
0	0xbe096ef2	-0.13421229
1	0xbdb47799	-0.08811874
2	0xbe3f3f6e	-0.1867654
3	0xbe8187bb	-0.25298867
4	0xbe5ea801	-0.21743776
5	0xbdf65e92	-0.120297566
6	0xbe53a06f	-0.2066667
7	0xbda86df0	-0.08224094
8	0xbe8059c2	-0.2506848
9	0xbe5953a5	-0.21223314
10	0x3c9df733	0.019282913
11	0xbd9b1c14	-0.07573715
12	0xbc6cc0df	-0.014450281
13	0xbd079658	-0.033102363
14	0xbe6056f7	-0.21908174
15	0xbd9d9b91	-0.076956876
16	0xbe4dde5d	-0.20104356
17	0xbe4b96e8	-0.19881785
18	0xbe4a36cf	-0.1974747
19	0xbe2b274a	-0.16714206
20	0xbc9aae85	-0.018882046
21	0xbdbffeba	-0.09374757
22	0xbe576019	-0.21032752
23	0xbec048a1	-0.3755541
24	0xbea35503	-0.31900796
25	0xbe0de5e5	-0.13857229
26	0xbe6f0260	-0.2334075
27	0x3c5b84ed	0.013398391
28	0xbed9ae89	-0.42515972
29	0xbe4f9471	-0.2027147
30	0xbe7b45ed	-0.24538393
31	0xbe9fbf72	-0.3120075
